…
ReLU(True), # state size. (ngf) x 32 x 32 nn.ConvTranspose2d( ngf, nc, 4, 2, 1, bias=False), nn.Tanh() # state size. (nc) x 64 x 64 ) def forward(self, input): return self.main(input) 实例化生成器，初始化参数w 12345678910111213# Create the generatornetG = Generator(ngpu).to(device)# Handle multi-gpu if desiredif (device.type == 'cuda') and (ngpu &gt; 1): netG = nn.DataParallel(netG, list(range(ngpu)))# Apply the weights_init function to randomly initialize all weights# to mean=0, stdev=0.2.netG.apply(weights_init)# Print the modelprint(netG) out:123456789101112131415161718Generator( (main): Sequential( (0): ConvTranspose2d(100, 512, kernel_size=(4, 4), stride=(1, 1), bias=False) (1): BatchNorm2d(512, eps=1e-05, momentum=0.1, affine=True, track_running_stats=True) (2): ReLU(inplace=True) (3): ConvTranspose2d(512, 256, kernel_size=(4, 4), stride=(2, 2), padding=(1, 1), bias=False) (4): BatchNorm2d(256, eps=1e-05, momentum=0.1, affine=True, track_running_stats=True) (5): ReLU(inplace=True) (6): ConvTranspose2d(256, 128, kernel_size=(4, 4), stride=(2, 2), padding=(1, 1), bias=False) (7): BatchNorm2d(128, eps=1e-05, momentum=0.1, affine=True, track_running_stats=True) (8): ReLU(inplace=True) (9): ConvTranspose2d(128, 64, kernel_size=(4, 4), stride=(2, 2), padding=(1, 1), bias=False) (10): BatchNorm2d(64, eps=1e-05, momentum=0.1, affine=True, track_running_stats=True) (11): ReLU(inplace=True) (12): ConvTranspose2d(64, 3, kernel_size=(4, 4), stride=(2, 2), padding=(1, 1), bias=False) (13): Tanh() )) 5.3 判别器(Discriminator)判别器D是一个二元分类器，判别输入的图片真假。通过输入图片进入一连串的卷积层中，经过卷积(Strided Convolution)、批量正则(BatchNorm)、LeakyReLu激活，最终通过Sigmoid激活函数输出一个概率选择。 以上的结构如有必要可以扩展更多的层，不过DCGAN的设计者通过实验发现调整步幅的卷积层比池化的下采样效果要好，因为通过卷积网络可以学习到自己的池化函数。同时批量正则化和leakly relu函数都可以提高梯度下降的质量，这些效果在同时训练G和D时显得更为突出。 123456789101112131415161718192021222324252
…
ReLU(0.2, inplace=True), # state size. (ndf*8) x 4 x 4 nn.Conv2d(ndf * 8, 1, 4, 1, 0, bias=False), nn.Sigmoid() ) def forward(self, input): return self.main(input) 构建D，并初始化w方程，并且输出模型的结构。 12345678910111213# Create the DiscriminatornetD = Discriminator(ngpu).to(device)# Handle multi-gpu if desiredif (device.type == 'cuda') and (ngpu &gt; 1): netD = nn.DataParallel(netD, list(range(ngpu)))# Apply the weights_init function to randomly initialize all weights# to mean=0, stdev=0.2.netD.apply(weights_init)# Print the modelprint(netD) out: 1234567891011121314151617Discriminator( (main): Sequential( (0): Conv2d(3, 64, kernel_size=(4, 4), stride=(2, 2), padding=(1, 1), bias=False) (1): LeakyReLU(negative_slope=0.2, inplace=True) (2): Conv2d(64, 128, kernel_size=(4, 4), stride=(2, 2), padding=(1, 1), bias=False) (3): BatchNorm2d(128, eps=1e-05, momentum=0.1, affine=True, track_running_stats=True) (4): LeakyReLU(negative_slope=0.2, inplace=True) (5): Conv2d(128, 256, kernel_size=(4, 4), stride=(2, 2), padding=(1, 1), bias=False) (6): BatchNorm2d(256, eps=1e-05, momentum=0.1, affine=True, track_running_stats=True) (7): LeakyReLU(negative_slope=0.2, inplace=True) (8): Conv2d(256, 512, kernel_size=(4, 4), stride=(2, 2), padding=(1, 1), bias=False) (9): BatchNorm2d(512, eps=1e-05, momentum=0.1, affine=True, track_running_stats=True) (10): LeakyReLU(negative_slope=0.2, inplace=True) (11): Conv2d(512, 1, kernel_size=(4, 4), stride=(1, 1), bias=False) (12): Sigmoid() )) 5.4 损失函数&amp;优化器(loss&amp;optimizer)用Pytorch自带的损失函数Binary Corss Entropy(BCELoss),其定义如下： 我们定义真图片real为1，假图片fake为0。同时设置两个优化器optimizer。在本例中都是adam优化器，其学习率是0.0002且Beta1=0.5。为了保持生成学习的过程，我们从一个高斯分布中生成一个修正的批量数据。同时在训练过程中，我们定期放入修正的噪音给生成器G以提高拟合能力。 1234567891011121314# Initialize BCELoss functioncriterion = nn.BCELoss()# Create batch of l
…
